Model: "sequential_3"
_________________________________________________________________
Layer (type)                 Output Shape              Param #   
=================================================================
conv2d_7 (Conv2D)            (None, 26, 26, 32)        320       
_________________________________________________________________
max_pooling2d_5 (MaxPooling2 (None, 13, 13, 32)        0         
_________________________________________________________________
conv2d_8 (Conv2D)            (None, 11, 11, 64)        18496     
_________________________________________________________________
max_pooling2d_6 (MaxPooling2 (None, 5, 5, 64)          0         
_________________________________________________________________
conv2d_9 (Conv2D)            (None, 3, 3, 64)          36928     
_________________________________________________________________
flatten_3 (Flatten)          (None, 576)               0         
_________________________________________________________________
dense_5 (Dense)              (None, 64)                36928     
_________________________________________________________________
dense_6 (Dense)              (None, 10)                650       
=================================================================
Total params: 93,322
Trainable params: 93,322
Non-trainable params: 0
_________________________________________________________________
Preparing_data
Training
Epoch 1/2
60000/60000 [==============================] - 44s 729us/step - loss: 0.1635 - accuracy: 0.9490
Epoch 2/2
60000/60000 [==============================] - 44s 740us/step - loss: 0.0455 - accuracy: 0.9860
10000/10000 [==============================] - 2s 206us/step
経過時間：92.24963903427124

Model: "sequential_1"
_________________________________________________________________
Layer (type)                 Output Shape              Param #   
=================================================================
conv2d_1 (Conv2D)            (None, 26, 26, 32)        320       
_________________________________________________________________
max_pooling2d_1 (MaxPooling2 (None, 13, 13, 32)        0         
_________________________________________________________________
conv2d_2 (Conv2D)            (None, 11, 11, 64)        18496     
_________________________________________________________________
max_pooling2d_2 (MaxPooling2 (None, 5, 5, 64)          0         
_________________________________________________________________
conv2d_3 (Conv2D)            (None, 3, 3, 64)          36928     
_________________________________________________________________
flatten_1 (Flatten)          (None, 576)               0         
_________________________________________________________________
dense_1 (Dense)              (None, 64)                36928     
_________________________________________________________________
dense_2 (Dense)              (None, 10)                650       
=================================================================
Total params: 93,322
Trainable params: 93,322
Non-trainable params: 0
_________________________________________________________________
Preparing_data
Downloading data from https://s3.amazonaws.com/img-datasets/mnist.npz
11493376/11490434 [==============================] - 5s 0us/step
Training
WARNING:tensorflow:From /home/pi/env1/lib/python3.7/site-packages/keras/backend/tensorflow_backend.py:422: The name tf.global_variables is deprecated. Please use tf.compat.v1.global_variables instead.
…
